…
eckpoint shards:  50%|█████     | 1/2 [00:02<00:02,  2.34s/it]Loading checkpoint shards:  50%|█████     | 1/2 [00:02<00:02,  2.11s/it]Loading checkpoint shards: 100%|██████████| 3/3 [00:01<00:00,  2.97it/s]Loading checkpoint shards: 100%|██████████| 3/3 [00:02<00:00,  1.78it/s]Loading checkpoint shards: 100%|██████████| 3/3 [00:02<00:00,  1.28it/s]
Loading checkpoint shards: 100%|██████████| 3/3 [00:01<00:00,  2.24it/s]
LlamaMixQForCausalLM(
LlamaMixQForCausalLM(
  (model): LlamaForCausalLM(
  (model): LlamaForCausalLM(
    (model): LlamaModel(
    (model): LlamaModel(
      (embed_tokens): Embedding(32000, 5120)
      (embed_tokens): Embedding(32000, 5120)
      (layers): ModuleList(
      (layers): ModuleList(
        (0-39): 40 x LlamaDecoderLayer(
        (0-39): 40 x LlamaDecoderLayer(
          (self_attn): LlamaSdpaAttention(
          (self_attn): LlamaSdpaAttention(
            (q_proj): Linear(in_features=5120, out_features=5120, bias=False)
            (q_proj): Linear(in_features=5120, out_features=5120, bias=False)
            (k_proj): Linear(in_features=5120, out_features=5120, bias=False)
            (k_proj): Linear(in_features=5120, out_features=5120, bias=False)
            (v_proj): Linear(in_features=5120, out_features=5120, bias=False)
            (v_proj): Linear(in_features=5120, out_features=5120, bias=False)
            (o_proj): Linear(in_features=5120, out_features=5120, bias=False)
            (o_proj): Linear(in_features=5120, out_features=5120, bias=False)
            (rotary_emb): LlamaRotaryEmbedding()
            (rotary_emb): LlamaRotaryEmbedding()
          )
          )
          (mlp): LlamaMLP(
          (mlp): LlamaMLP(
            (gate_proj): Linear(in_features=5120, out_features=13824, bias=False)
            (gate_proj): Linear(in_features=5120, out_features=13824, bias=False)
            (up_proj): Linear(in_features=5120, out_features=13824, bias=False)
            (up_proj): Linear(in_features=5120, out_features=13824, bias=False)
            (down_proj): Linear(in_features=13824, out_features=5120, bias=False)
            (down_proj): Linear(in_features=13824, out_features=5120, bias=False)
            (act_fn): SiLU()
            (act_fn): SiLU()
          )
          )
          (input_layernorm): LlamaRMSNorm()
          (input_layernorm): LlamaRMSNorm()
          (post_attention_layernorm): LlamaRMSNorm()
          (post_attention_layernorm): LlamaRMSNorm()
        )
        )
      )
      (norm): LlamaRMSNorm()
    )
    (lm_head): Linear(in_features=5120, out_features=32000, bias=False)
  )
)
      )
      (norm): LlamaRMSNorm()
    )
    (lm_head): Linear(in_features=5120, out_features=32000, bias=False)
  )
)
Loading checkpoint shards: 100%|██████████| 2/2 [00:03<00:00,  1.41s/it]Loading checkpoint shards: 100%|██████████| 2/2 [00:03<00:00,  1.51s/it]
Loading checkpoint shards: 100%|██████████| 2/2 [00:03<00:00,  1.50s/it]Loading checkpoint shards: 100%|██████████| 2/2 [00:03<00:00,  1.63s/it]
LlamaMixQForCausalLM(
  (model): LlamaForCausalLM(
    (model): LlamaModel(
      (embed_tokens): Embedding(32000, 4096)
      (layers): ModuleList(
        (0-31): 32 x LlamaDecoderLayer(
          (self_attn): LlamaSdpaAttention(
            (q_proj): Linear(in_features=4096, out_features=4096, bias=False)
            (k_proj): Linear(in_features=4096, out_features=4096, bias=False)
            (v_proj): Linear(in_features=4096, out_features=4096, bias=False)
            (o_proj): Linear(in_features=4096, out_features=4096, bias=False)
            (rotary_emb): LlamaRotaryEmbedding()
          )
          (mlp): LlamaMLP(
            (gate_proj): Linear(in_features=4096, out_features=11008, bias=False)
            (up_proj): Linear(in_features=4096, out_features=11008, bias=False)
            (down_proj): Linear(in_features=11008, out_features=4096, bias=False)
            (act_fn): SiLU()
          )
          (input_layernorm): LlamaRMSNorm()
          (post_attention_layernorm): LlamaRMSNorm()
        )
      )
      (norm): LlamaRMSNorm()
    )
    (lm_head): Linear(in_features=4096, out_features=32000, bias=False)
  )
)
LlamaMixQForCausalLM(
  (model): LlamaForCausalLM(
    (model): LlamaModel(
      (embed_tokens): Embedding(32000, 4096)
      (layers): ModuleList(
        (0-31): 32 x LlamaDecoderLayer(
          (self_attn): LlamaSdpaAttention(
            (q_proj): Linear(in_features=4096, out_features=4096, bias=False)
            (k_proj): Linear(in_features=4096, out_features=4096, bias=False)
            (v_proj): Linear(in_features=4096, out_features=4096, bias=False)
            (o_proj): Linear(in_features=4096, out_features=4096, bias=False)
            (rotary_emb): LlamaRotaryEmbedding()
          )
          (mlp): LlamaMLP(
            (gate_proj): Linear(in_features=4096, out_features=11008, bias=False)
            (up_proj): Linear(in_features=4096, out_features=11008, bias=False)
            (down_proj): Linear(in_features=11008, out_features=4096, bias=False)
            (act_fn): SiLU()
          )
          (input_layernorm): LlamaRMSNorm()
          (post_attention_layernorm): LlamaRMSNorm()
        )
      )
      (norm): LlamaRMSNorm()
    )
    (lm_head): Linear(in_features=4096, out_features=32000, bias=False)
  )
)
Mix quant:   0%|          | 0/32 [00:00<?, ?it/s]Mix quant:   0%|          | 0/32 [00:00<?, ?it/s]Mix quant:   3%|▎         | 1/32 [00:02<01:07,  2.18s/it]Mix quant:   3%|▎         | 1/32 [00:03<01:33,  3.01s/it]Mix quant:   0%|          | 0/40 [00:00<?, ?it/s]Mix quant:   0%|          | 0/40 [00:00<?, ?it/s]Mix quant:   2%|▎         |
…
